kenshiro_flow/checkpt.pth (torch, 46961 bytes, 20 tensors)

chain.0.odefunc.odefunc.diffeq.layers.0._layer.weight f4 [64, 2]
00000000: 54bf e23e 756d 6a3f eeb9 013e 6314 e93e
00000010: 33c5 1d3f c2c6 35be 9074 24bf 9d3e f93e
00000020: 2414 6e3c cf02 bd3e b9bb 42bf e95c f8be
00000030: c58e 7abf f058 48be 278c ae3d 628f f93e
00000040: 19a9 90be 7c18 643e c088 283f 8ac5 493f
00000050: 279e 1cbf 7243 c23e 6e81 a43e d75b 113f
00000060: f18e dbbe 0b66 4d3e 3a5b 66be 8de2 f13d
00000070: 2d2f f4bd 85b8 0fbf 052c 0abf 9837 8a3e
00000080: 274e 1abf f2d2 e2bd 8de9 313f c4af 183f
00000090: 38db 15bf cf88 0d3e 52a4 19bf 4ced debe
000000a0: 1b54 0b3f fa09 0e3f f9b2 473f 7c33 d0be
000000b0: 83e9 c9be 8075 fb3e 2568 18bf d896 cbbe
000000c0: 48d6 20bf fba4 6dbf 8461 513f d5af 1dbf
000000d0: 25d8 3c3f dbf4 66be 0abb cfbe fc82 163e
000000e0: 3591 bbbe bfe8 d53e 0ed5 d53d 742a 1e3f
000000f0: 0bbc 34bf 6810 50bf 46dc 2ebe f58a 16bf
00000100: c097 dcbe 76ff ca3d e9e4 44bf e12f 443e
00000110: bf4d d23d f335 d53e 23e3 e6be f3c5 7f3e
00000120: c42b 73bf c630 263c bbb1 fe3d 7160 af3e
00000130: cb4f 633e 9682 e63e 89ba c3be c606 43bf
00000140: 601f 173e 945f 08bf af00 663f 97da c63e
00000150: 1b1b 493f bdd0 60bf 456e ddbe 6763 09bf
00000160: f911 193f a055 09bf 64eb 273f a2ad bbbe
00000170: f053 bd3e 5e41 073f 7d63 fabd 0a99 cdbe
00000180: 97f2 1fbf 898c b5be 7ef7 6dbf 6e6c 333f
00000190: 32d5 afbe a6f6 91be d3f6 64be 6cbc d43d
000001a0: b7e0 253f c5a6 00bf 5bfc 383d 4e46 d53e
000001b0: e697 8a3e e5a5 023f 1dec 0c3f ec30 a8be
000001c0: 09dd 15bf 7c78 b3be eb30 0fbf 9a4d 8e3e
000001d0: 15ee 27bf dc6f a83e a244 e63e de64 343f
000001e0: 9d29 323f 656f d8be ffd0 e9be 115d 813e
000001f0: 9eb3 7bbf 6899 443f 1f36 ed3d 719d 34bf
0.44286597 0.9157327 0.12668583 0.45523366 0.6162903 -0.17751601 -0.6424036 0.48680583
0.014531169 0.36916205 -0.7606769 -0.48508385 -0.978741 -0.19565177 0.08522826 0.48742205
-0.2825401 0.22274965 0.65833664 0.78817046 -0.6117882 0.37942082 0.32129997 0.5678076
-0.42882493 0.20058458 -0.22495738 0.11810789 -0.119230606 -0.5614093 -0.5397342 0.2699554
-0.602755 -0.11075391 0.69496995 0.596432 -0.58537626 0.1382172 -0.6001636 -0.43540418
0.5442521 0.55483973 0.78007466 -0.4066428 -0.39435968 0.49113083 -0.5953391 -0.39763522
-0.6282697 -0.92829865 0.8178942 -0.61596423 0.7376731 -0.22554342 -0.40572387 0.14698404
-0.36634222 0.41779134 0.104410276 0.6178353 -0.7059943 -0.81275034 -0.17076215 -0.5880578
-0.43084526 0.099120066 -0.7691179 0.1915889 0.10268735 0.41642722 -0.45095167 0.24977855
-0.94988656 0.010143464 0.12436243 0.34253266 0.22198407 0.45021504 -0.38228253 -0.7618221
0.14758062 -0.5327084 0.89844793 0.38838646 0.78556985 -0.8781851 -0.4324819 -0.536673
0.5979305 -0.5364628 0.6559355 -0.3665591 0.36978102 0.5283412 -0.12226007 -0.40155822
-0.6247954 -0.35458782 -0.9295577 0.70087326 -0.34342343 -0.2850849 -0.22359781 0.10387501
0.6479601 -0.5025447 0.04516254 0.416552 0.27069014 0.51034385 0.5504778 -0.32849824
-0.585404 -0.3505286 -0.5593402 0.2779358 -0.6559766 0.32897842 0.44974238 0.7046641
0.69594747 -0.42272487 -0.45667264 0.25266317 -0.9832095 0.7679658 0.115825884 -0.70552737

chain.0.odefunc.odefunc.diffeq.layers.0._layer.bias f4 [64]
00000000: 808a afbe dcdf aebf 3fbb 693f 8184 283e
00000010: 21da 963f 8d14 8a3f eae0 f93e ca6f 543e
00000020: 947b 3b3f e072 4ebb 9d68 73be 34a5 06bf
00000030: f5fa 5b3f 350a d1bd 92a9 a0be 212c 2abe
00000040: 34d6 9bbf e038 1bbf 39fd 6dbf d6d9 70bf
00000050: 4460 cc3c b47d 15bf d00d dbbd e6b7 a9bd
00000060: 4161 213f 146e 79bf 9491 863f 03c1 a63d
00000070: 74dd debe 77eb b2be 5175 253e e69e c5be
00000080: 5d79 843f 7613 90bf 641b 2fbf adbd 57bf
00000090: 3691 493f 5a74 843f db12 063f a6a5 993e
000000a0: f4cb 3fbf 1a98 13bf 3e9c 5fbe d98c 4dbf
000000b0: 10ec 1abf 0f03 e73e 53f8 99be 1b58 84be
000000c0: f8d3 823e 8800 4ebf 7a20 45bf 499e 25be
000000d0: 808e d7be 9655 5ebf 9813 1f3c 6993 5f3f
000000e0: 4ac1 d9be e998 8abf dc76 1f3f f9b1 8cbd
000000f0: ffd2 2bbf b710 6b3f c008 0e3f 5cf1 783f
-0.34285355 -1.3662066 0.9130134 0.16456796 1.1785318 1.0787522 0.48804408 0.20745769
0.7323544 -0.0031501576 -0.23770376 -0.5259583 0.85929805 -0.10207025 -0.31379372 -0.16618396
-1.2174745 -0.6063366 -0.9296451 -0.9408239 0.024948247 -0.5839493 -0.10695994 -0.08287029
0.6303902 -0.9743359 1.0513177 0.08142283 -0.4352833 -0.3494527 0.16158034 -0.38597792
1.0349537 -1.1255939 -0.6840117 -0.842738 0.787372 1.0348008 0.5237252 0.30009192
-0.7492058 -0.57653964 -0.21836945 -0.8029304 -0.6051645 0.4511952 -0.3007227 -0.2584847
0.25552344 -0.8046956 -0.7700268 -0.16173662 -0.42100906 -0.86849344 0.009709261 0.87334305
-0.4253028 -1.0827914 0.6229074 -0.06869883 -0.6711883 0.9182238 0.554821 0.97243285

chain.0.odefunc.odefunc.diffeq.layers.0._hyper_bias.weight f4 [64, 1]
00000000: 8b42 5abf 3607 a43e 02c9 0a3f 8808 e93e
00000010: 832c 59bf c22c 09be c535 f03e 355b 56be
00000020: 80e5 5cbf d777 ac3e bd60 a13f 8482 72bf
00000030: 60c3 0bbf ce71 593f 8992 2a3e 0f42 52bf
00000040: b41e 84bf 2600 54bf d47b 2cbf 1c54 54bf
00000050: b851 f4be 8698 76bf 0c38 19be c2c7 5c3e
00000060: 05f5 eb3e ebe0 3bbf 8a52 583f 8845 b5be
00000070: 1827 903e 2e86 77bf 7920 993f 37c2 fe3e
00000080: da74 c9be 945d 41bf cf5a 003f e6f7 5b3f
00000090: cc13 4cbe 7bcc 3abf 9ccd 68be 9e8b 2d3c
000000a0: df11 033d 67bf 16bf 2302 5fbf ea97 15bf
000000b0: 7676 d9bd 58c1 50bf 78c2 113f 217c 1cbf
000000c0: b232 8abf 2451 8dbf 6093 06bd 1552 853f
000000d0: e83d 87be fe55 1b3f ebf3 3a3f eef6 fbba
000000e0: 71bc 8c3f b9c6 373e 63e4 abbe d53c c1be
000000f0: d2eb 9ebf b589 c0be c6f1 cdbd 5b43 913f
-0.85257787 0.32036752 0.54212964 0.4551432 -0.84833544 -0.1339598 0.46916023 -0.2093323
-0.8628769 0.3368518 1.2607647 -0.947304 -0.54594994 0.8493928 0.16657461 -0.8213205
-1.032187 -0.82812726 -0.67376447 -0.8294084 -0.47718596 -0.9632648 -0.14962786 0.21560577
0.46085373 -0.7339007 0.84500945 -0.3540461 0.28154826 -0.96689117 1.1963035 0.4975755
-0.39346963 -0.75533414 0.5013856 0.8592514 -0.19929427 -0.7296826 -0.22734684 0.010592369
0.031999465 -0.58885807 -0.87112635 -0.5843493 -0.10618298 -0.8154502 0.5693736 -0.61126906
-1.0796721 -1.1040387 -0.03285539 1.0415674 -0.26414418 0.6067809 0.7302844 -0.0019223371
1.0995008 0.179469 -0.33572683 -0.37741724 -1.2415717 -0.37605062 -0.1005588 1.134868

chain.0.odefunc.odefunc.diffeq.layers.0._hyper_gate.weight f4 [64, 1]
00000000: 6011 533f 9eb9 073f e8ad b43f 9374 cdbd
00000010: 5341 1c3f 486f af3f 2702 4a3f 52bb 693e
00000020: d1b3 913e 78b9 afbe b7d0 8cbe da67 5d3f
00000030: 7e79 bb3f 3f42 873f ca54 8d3f 9d3c a73e
00000040: 196a a73f 5cec be3e 6a98 a13f 6185 833f
00000050: 5bf4 3bbe 8279 873f 05b3 83bd 8fe0 d6be
00000060: a6f5 9f3e 5a62 2a3f e815 8b3f 21ee 8d3e
00000070: 4db0 913d c298 cebe ed8c ebbd 0c56 883f
00000080: 6408 343e ba74 fb3f 96c9 743f 457e 353e
00000090: e171 bbbe b1ed b23f 3931 ab3f cc54 1bbe
000000a0: 9f67 ae3e 3ba9 003f 9d45 fc3d 94d1 5d3f
000000b0: 73d8 163e 1b90 7dbd d8fa 173e 7a7e 6a3f
000000c0: f6e1 4dbf 5e73 423f 9c27 413f 05ca 063f
000000d0: 780d 163f 04a2 5dbe be20 aa3e 1b24 b33f
000000e0: 28ce a0bf 7786 8b3f 4569 693f 084e 523e
000000f0: 184e 0d3e bede f43f 7547 443f fd95 953f
0.8244839 0.53017604 1.4115572 -0.100320004 0.61037177 1.3705835 0.78909534 0.22825363
0.28457502 -0.3432119 -0.27502987 0.8648659 1.4646451 1.0567092 1.10415 0.32663432
1.3079253 0.37289703 1.2624638 1.0275079 -0.18354933 1.0583956 -0.0643063 -0.419682
0.31242102 0.6655632 1.086606 0.2772074 0.07113705 -0.4035092 -0.11501489 1.065126
0.17581326 1.9644997 0.95620096 0.17723949 -0.3661032 1.3978788 1.3374397 -0.15169066
0.34063432 0.50258225 0.12317965 0.86647916 0.14731006 -0.061905008 0.14841783 0.9159924
-0.80422914 0.75957286 0.75451064 0.5265201 0.586143 -0.21643835 0.33228105 1.3995394
-1.2562914 1.090041 0.91176254 0.20537579 0.13799322 1.9130476 0.76671535 1.1686398

chain.0.odefunc.odefunc.diffeq.layers.0._hyper_gate.bias f4 [64]
00000000: ff20 28bf 0413 b43f 0061 0b3e 3f48 383f
00000010: 2e42 b43f 22f5 8c3f 44f7 093f deb9 82be
00000020: 3f31 0a3f 9b6b 4ebf b84d 233e 9315 a53f
00000030: dbe0 e73e b796 153f 8d26 40bf 57de 85bc
00000040: 879c b33f efdf 963f 5b9a 4b3f b84d 37be
00000050: 39a3 483f 7973 03bf 2746 3fbf 7ae5 92be
00000060: 5552 d4be 765a 5d3f c737 c03e 3a73 69be
00000070: 7c38 debe 3bf2 613f 46b5 873f 1689 1dbf
00000080: 688a 853f 3791 4dbe 0faf 803e 62d5 2bbf
00000090: abd1 8e3f fb77 a03f 0a6a f9be c2b2 59bc
000000a0: 7e11 a53e a2f5 973f 668f e53e e378 fc3e
000000b0: 3416 40bf 5021 93be 1569 e9be 717d 213e
000000c0: b707 1bbf 0fb9 94be dea2 683f 13c9 453e
000000d0: 7932 6f3f 0586 093f 6243 073f 485f bbbe
000000e0: 1b13 7ebe b229 4ebe a0ee 3fbf 5618 133e
000000f0: c4cf 863f 7cf7 4a3d 36f7 843f 3caa 1a3f
-0.6567535 1.4068303 0.13611221 0.7198524 1.4082696 1.1012309 0.5389292 -0.2553243
0.53981394 -0.8063294 0.15947616 1.2897209 0.4528874 0.584331 -0.75058824 -0.016341371
1.4032143 1.1787089 0.795324 -0.17900741 0.7837406 -0.5134807 -0.7471642 -0.28690702
-0.41469064 0.8646616 0.37542555 -0.22797862 -0.4340247 0.8826024 1.0602195 -0.615373
1.0432863 -0.20074926 0.2513356 -0.6712247 1.1157736 1.2536615 -0.48713714 -0.013287248
0.32239908 1.1871836 0.44835967 0.4931098 -0.7503388 -0.28736353 -0.45587984 0.15770508
-0.60558647 -0.29047439 0.90873516 0.19314985 0.9343639 0.5372012 0.52837193 -0.3659613
-0.24811976 -0.20133093 -0.7497349 0.14364752 1.0532155 0.049552426 1.0387943 0.6041601

chain.0.odefunc.odefunc.diffeq.layers.1._layer.weight f4 [64, 64]
00000000: 8cb2 57bd 1bc4 b9be 87cd aabd ada2 f93d
00000010: 76d1 fdbc f378 883b 01f3 2bbe 3041 57bd
00000020: 2830 ba3d 5713 503d 2ee8 edbc e8ee f6bd
00000030: c541 a43e 75e0 623e 62f1 9bbd 5f1c 2e3e
00000040: 44df ac3d ca57 133e fdec 613d 0b9e 423c
00000050: 0f9a ff3d 0001 07be b970 013e 491b 1cbd
00000060: 650a 88bc 8e1c 97bc 30fe b83a e9f6 9c3e
00000070: cec0 e73d 1dd9 aabd 5bf0 dbbd 556d 8dbd
00000080: 5b4b e93e 57a7 cd3d e807 d23c 2e4f 493e
00000090: 7438 81be b27b a2bc 399a 62be 4d34 f5bc
000000a0: 725e 063c 054d 843e ce07 d13d d61e 063d
000000b0: ab8f 4cbe e252 54be 0ad9 16be b005 15be
000000c0: 8481 72bd 6c30 043d 95c1 9f3d 8f1c 3c3e
000000d0: f5eb e8bc 3c9e 66bd d3ab ed3c c554 74bd
000000e0: 9396 8bbd 8f4f 963e 9a88 5c3e ac3f fa3c
000000f0: 138b 5f3d 3e99 933e 4962 3dbe 1f79 85bd
00000100: 420a ef3b 2e91 243f 24b3 85be f230 543e
00000110: ae5f e0be e597 1bbf 6b44 73be 532e 47be
00000120: d608 88bd 337a 13bd 1469 a83e 09fe 813e
00000130: 30aa 6e3c c8e1 4b3e 67f1 473e 7e84 2dbd
00000140: bbf8 1b3f 4623 ae3e 08fd 5f3e 5a1f 893e
00000150: 992d 133e 96d8 21be 763e 85bd 56b6 a43d
00000160: c778 16be 91e0 a2bd 6e51 7cbe ddaa 1d3d
00000170: 59de 4d3e d45c 1f3e 91a4 3cbe c51a de3c
00000180: 2fd5 43be 1c14 c53e 3f0b 393e 6d3f 2e3f
00000190: 3873 d2be 4124 15bf 4514 dcbe b289 01bd
000001a0: bf92 023e 1038 c93e b5a3 f33c 809d a33e
000001b0: bc37 91bd 1a30 78be f63c 2e3d adaf 98bd
000001c0: 0615 ddbd 5f32 31be 45f1 063f fffc ce3e
000001d0: 542f 77bd bab6 763e cc24 4cbd 654b e5be
000001e0: 4b4b 443e 14ee d03e 391d 723e e03a 92bc
000001f0: 22ba 8cbd b644 e83d 79a3 093e d74e aabe
00000200: 7904 7ebe ecff 873d 8c6d 953b 4f8b 73be
00000210: 7bd2 f2be 3919 913e 6ec0 863d c679 90be
00000220: 0d03 93be ea07 50be 6768 e3bc f219 0ebe
00000230: cb1d 4dbe 8fa6 65bd 188e 873e fd37 c8bd
00000240: c415 643d 74dd 68be ec36 f83c f4a9 863e
00000250: 9316 79be 2388 8b3c c59a 65be 01a0 823e
00000260: a964 843e 1119 003e e360 b8b8 da92 11be
00000270: 9349 90bd 538d acbd 24a9 1a3e 4895 a53e
00000280: 7f3f 56be 5f8d e0bd 2e29 24be d3ba eb3d
00000290: 6f58 02bd 302f adbe 3087 b5be 99c6 863e
000002a0: b6af 743e 1334 93be a7ba 223e c43e cc3e
000002b0: 3ed7 553e 5ca3 143d 11c1 57be 1556 763e
000002c0: 397a 0b3e 3968 68be bf38 913e 2919 d2bd
000002d0: c75c 3a3e fa7a 06be e773 85bd 4bc0 0d3d
000002e0: bc5e b13e 6612 eb3c e8e7 27be 7160 62be
000002f0: b7e0 123e 06f4 4bbe 3f77 3fbe 18fe 443d
00000300: b053 27be 88fd 82be b267 e13e 7358 48be
00000310: 0fac 123e 4834 123f 86fb 7b3e 5539 12bd
00000320: 5e37 15be c26f 94bd b5dd 8ebe 3827 b3be
00000330: afb7 66be 85c0 01bd d935 05be 08e5 60be
00000340: 8462 0bbf 87d0 f5be 783e 82be ac6a 92be
00000350: ebc0 4cbe aaaa 8b3c f2d2 50be a03c 093e
00000360: 4108 a93e 1e19 933d 6a4a c83e 4adf d4be
00000370: 7dbf 77be 406a f8bd 63ba 803e 4d30 7d3d
00000380: f323 a8bd 46cd 0bbf c578 8abd 16d9 63be
00000390: cd40 3f3e bbe7 8e3d a3cd 953e a42f 333e
000003a0: e0aa 55bd b963 efbe fd8f 1b3e f237 42bd
000003b0: 1499 b13c b876 a33e 192f 753d abf3 92bd
000003c0: 6574 353c b7b3 c6be ebd5 78be d18a 15be
000003d0: 451c 013e 19ab 47be b1ec 83bd 4629 043f
000003e0: 085e 573d 7184 14bf cbcc 84be 99c4 8bbd
000003f0: a1c2 f83d 3b99 8fbc 9713 f3bd 6fbc 743e
-0.05266051 -0.3628243 -0.083399825 0.12189231 -0.030983668 0.004164809 -0.16791917 -0.052552402
0.09091216 0.050799694 -0.029041376 -0.120572865 0.32081428 0.22155936 -0.076143995 0.1700301
0.08441022 0.14388958 0.05515765 0.011878501 0.12480556 -0.13183975 0.12640657 -0.03811196
-0.016606519 -0.018446233 0.001411384 0.30657127 0.113160715 -0.08342192 -0.107392035 -0.06905619
0.45565304 0.10041683 0.025638536 0.19659111 -0.25238383 -0.019834373 -0.22129144 -0.029932166
0.008201228 0.2584001 0.10206567 0.03274425 -0.1997668 -0.20734742 -0.14731231 -0.14552951
-0.059205547 0.03227274 0.07800595 0.18370269 -0.028432826 -0.056303248 0.029012596 -0.059651155
-0.06815829 0.29357573 0.21536484 0.03054794 0.05457599 0.28827852 -0.18494524 -0.06517243
0.007294924 0.64284027 -0.26113236 0.20721796 -0.43822998 -0.6077865 -0.23756568 -0.19451265
-0.0664231 -0.03600521 0.32892668 0.25389126 0.014566943 0.19910347 0.19525681 -0.042362683
0.6092641 0.34011286 0.21873868 0.26781732 0.14372863 -0.15805277 -0.06506054 0.0804259
-0.1469451 -0.07952989 -0.24640438 0.038493026 0.2010435 0.15562755 -0.18422152 0.027112374
-0.19124292 0.38491905 0.18070696 0.6806553 -0.4110353 -0.58258444 -0.42984214 -0.031625457
0.12751292 0.39300585 0.029741148 0.319561 -0.070907086 -0.242371 0.042538606 -0.074553825
-0.107950255 -0.17304371 0.527119 0.40427396 -0.06034787 0.24093142 -0.04983978 -0.44784084
0.19169347 0.4080664 0.2364396 -0.01785034 -0.068714395 0.113412306 0.13441266 -0.33263275
-0.24806394 0.0664061 0.004560178 -0.23783611 -0.4742621 0.28339556 0.06579672 -0.28217906
-0.28713265 -0.20315519 -0.027759744 -0.13877085 -0.20030896 -0.056067046 0.26475596 -0.09776304
0.05568482 -0.22740728 0.030299626 0.2630154 -0.24325018 0.017032688 -0.22422321 0.25512698
0.25858048 0.12509562 -8.79185e-05 -0.14216176 -0.07045283 -0.08425393 0.15103585 0.32340455
-0.2092266 -0.109644644 -0.16031334 0.11510243 -0.031822618 -0.33825064 -0.35454702 0.26323393
0.23895153 -0.28750667 0.15891515 0.39891636 0.2088289 0.036288604 -0.21069743 0.24056275
0.13620843 -0.22696008 0.28363606 -0.10258705 0.18199454 -0.1313285 -0.06516247 0.034607213
0.3464259 0.028695296 -0.16397059 -0.22107102 0.14343534 -0.19917306 -0.18697833 0.048093885
-0.16340518 -0.25584054 0.44024426 -0.1956499 0.14323448 0.57111025 0.24607667 -0.035699207
-0.14571902 -0.072478786 -0.27903524 -0.3499086 -0.22531007 -0.03167774 -0.13008823 -0.21962368
-0.544472 -0.48010656 -0.25438285 -0.2859701 -0.19995467 0.017049152 -0.20392969 0.13402033
0.3301411 0.07182525 0.39119273 -0.41576606 -0.2419414 -0.121296406 0.25142202 0.06181364
-0.08209982 -0.546101 -0.06761316 -0.2225078 0.18677063 0.06977793 0.2925845 0.17498642
-0.052164912 -0.4675577 0.15191646 -0.047416635 0.021679439 0.31926513 0.05985937 -0.07175382
0.011075114 -0.38808987 -0.24300353 -0.14603736 0.1260844 -0.19498862 -0.0644163 0.5162548
0.05257991 -0.5801459 -0.25937495 -0.068246074 0.121464975 -0.01752912 -0.11868971 0.23900007

chain.0.odefunc.odefunc.diffeq.layers.1._layer.bias f4 [64]
00000000: 211b a53d 82fa 1bbe fbc7 acbe 636f da3e
00000010: 1fa2 8f3d 6767 b03e c3ae 21be 3301 a73e
00000020: 5476 a33c 946d 1dbe 9ebe 023e 97c9 9c3d
00000030: 4583 d9bb c9d1 153e f03c 9fbe 11f1 bcbd
00000040: a1bf e7be 8c54 543d cdda b1be ba27 723d
00000050: 655a 5dbe 105c f93e 3c9c a43e 4c0c b2be
00000060: 4996 033d f94e 9cbe 0e31 f0be 5efc 163e
00000070: 27c7 cbbe 05fe 0c3e ffda 793d bd55 a33e
00000080: 2b5b 113d ae6c cfbe 418d 0a3e c335 a0be
00000090: 0e76 553e ae86 8a3d 098e a43e a6d9 61be
000000a0: fc55 f7bd e3c7 81be b2a2 0ebe 48d7 2abe
000000b0: a840 00bf d398 283e 4d24 ebbd e89b 76be
000000c0: 74d0 e23e 8040 6a3e 61ca 77bd 11e3 723e
000000d0: d11f e9bd d97b 5dbe 0532 bebe 8f14 cb3e
000000e0: 4d82 86bc 7537 c0be 1605 843e af79 80bd
000000f0: 793c 48be 78b6 c8be b599 8a3d 263b bc3d
0.08061815 -0.1523228 -0.33746323 0.42663106 0.07013344 0.3445389 -0.15789323 0.32618102
0.019953884 -0.15373832 0.12768027 0.07655638 -0.006637963 0.14630808 -0.3110118 -0.09225667
-0.4526339 0.051838443 -0.34737244 0.059119917 -0.21616514 0.4870305 0.32150447 -0.34775007
0.032125745 -0.30529 -0.46912426 0.14744708 -0.3980038 0.13768776 0.060999867 0.3190135
0.035487335 -0.40512604 0.13530447 -0.31291017 0.20845816 0.06763969 0.32139614 -0.22055683
-0.12076947 -0.25347814 -0.13929251 -0.16683686 -0.5009866 0.16464548 -0.11481533 -0.24082911
0.44299662 0.22876167 -0.060495738 0.23719431 -0.113830216 -0.21629275 -0.37147537 0.39664122
-0.016419554 -0.3754231 0.2578513 -0.06273209 -0.19554318 -0.39201713 0.067675985 0.09190969

chain.0.odefunc.odefunc.diffeq.layers.1._hyper_bias.weight f4 [64, 1]
00000000: 2013 ce3e b67d 0f3f c023 c3be 29a0 95be
00000010: 27b8 1abe 8f86 243e a1a8 91bf 1b40 1b3e
00000020: 348b a43e d1ca 64bf ef9f 363f ad27 413e
00000030: f805 683f 4989 8abf 47b3 38bf 4ae1 26bf
00000040: 37d4 6b3f cdc4 223f 810f 72bf 7a79 08bf
00000050: ea40 0b3e c9af 2f3d c122 a3be a895 5ebf
00000060: 29c0 553e 6531 83bf 82c3 92bf 209d f4be
00000070: f93a 91bf ef6a 543e fc15 0cbf 4648 343f
00000080: 9769 3a3f d980 75be 6afe 1f3f cd8f 5dbf
00000090: b735 953f 6537 593e 7ae4 a2bd 9c72 443f
000000a0: 81f8 14bf 6cf8 483f 42fe 65bf e391 fb3d
000000b0: 83ce 4bbf acd1 1e3e 0fe9 143f 06ba 0dbe
000000c0: 3c6d 35bd 36a8 42bf f882 99be 44f2 833e
000000d0: 8fec 113f e5bf 4d3e adad d4bd 12fd db3e
000000e0: ae59 db3e 6f55 4abf 647e 29bf 57c1 3a3f
000000f0: 5c57 9cbf f2d9 543f 6c8b 063f 84bd 233f
0.40248966 0.56051195 -0.38113213 -0.29223755 -0.15109311 0.16066955 -1.1379586 0.15161173
0.32137454 -0.89371973 0.7133779 0.18862791 0.9063411 -1.0823146 -0.72148556 -0.65187514
0.9212069 0.63581544 -0.9455491 -0.5331036 0.13598981 0.04289225 -0.31862453 -0.8694711
0.20874085 -1.0249449 -1.1465914 -0.47776127 -1.1346122 0.20743917 -0.54721045 0.7042278
0.7281737 -0.23974933 0.6249758 -0.8654755 1.1657017 0.21212538 -0.07953735 0.7673738
-0.58191687 0.7850406 -0.8984109 0.12283685 -0.79611987 0.15509671 0.5816812 -0.13840494
-0.044293627 -0.7603792 -0.29982734 0.25770772 0.57001585 0.20092733 -0.103846885 0.42966515
0.42841858 -0.7903661 -0.6620848 0.72951263 -1.221416 0.8314506 0.5255649 0.6396105

chain.0.odefunc.odefunc.diffeq.layers.1._hyper_gate.weight f4 [64, 1]
00000000: b1d2 383f 3cb3 ce3f f183 5f3f 4cba 483f
00000010: b4c7 d03e 0804 283f 3394 243f e151 593f
00000020: 2a51 643f 36a0 593f f592 e63e cbff 723e
00000030: ef5f a33f 6f2a 2b3e 2ed2 4d3e 970f 75be
00000040: 262e c73f 4145 0cbf c29e a43f 90f4 fd3b
00000050: eb2f e13e 03f3 563f 758d 503f 9945 b9be
00000060: 501c 663f f0c1 5e3f 166b f43e 8fe1 603f
00000070: ce22 5c3f 8a91 3a3f 0b2a b73f bdc9 16be
00000080: 40f5 613f 5cde 653f afea a6be 7701 19be
00000090: 65b8 163f e607 9c3e 525c 883e 3dc6 393f
000000a0: d3aa c7be 5810 6ebe 8cef 063f b047 cb3e
000000b0: 374d b73f 2348 ac3e 8198 61be 2838 b03f
000000c0: ef8a 223f cb72 afbd d931 953f 73f6 063f
000000d0: 64b3 8b3f 5376 14bd 763e 243f 0573 6b3f
000000e0: 4651 ce3e 5ff1 333f 1d42 a43e 7b84 173f
000000f0: 2b02 013f cb0c 5e3f aee0 553f 1952 223f
0.7219649 1.6148448 0.873107 0.78409266 0.4077736 0.6563115 0.64288634 0.8489056
0.89186347 0.8501009 0.45033994 0.2373039 1.2763652 0.16715406 0.20099708 -0.23931728
1.5560958 -0.54793173 1.2860949 0.0077501014 0.4398187 0.83964556 0.81465846 -0.3618591
0.8988695 0.87014675 0.4773795 0.87844175 0.8599061 0.72878325 1.4309705 -0.14725395
0.88264847 0.8979242 -0.32600924 -0.14941965 0.58875114 0.30474776 0.26632935 0.7256811
-0.38997516 -0.23248422 0.5270927 0.3970313 1.4320439 0.33648786 -0.22030832 1.3767138
0.63493246 -0.08566817 1.1655837 0.527198 1.0914121 -0.036245655 0.6415781 0.9197238
0.40296382 0.7029018 0.3208169 0.59186524 0.50393933 0.8673827 0.8354596 0.6340652

chain.0.odefunc.odefunc.diffeq.layers.1._hyper_gate.bias f4 [64]
00000000: 093c 2bbf 206e f83f aee5 75be a27d 903f
00000010: 7715 a33d 1301 c93f 1f0c 7cbe 3946 cf3e
00000020: 5def 82bd 6300 3bbe b8da 10be 16f1 823f
00000030: 29d7 873f 0e99 c73f 6d64 f3bd 35c3 45be
00000040: d90e e83f 57cc 363f 6fd2 84bd 92a7 1a3e
00000050: 9587 933f b779 d73f 9e25 d43f be27 563e
00000060: 899a c93e ef54 86be 3250 af3f a332 523e
00000070: 36f7 a93f 37d9 08bf 752a dc3e 2b2c 493f
00000080: 1a42 f03c d9d8 803f a02f d93e 58a2 403f
00000090: 3f82 903f 34b9 ca3f 7b4b 9cbe 48b3 a4bc
000000a0: 8ac8 523f ccf0 ee3e 947f ba3e 97b6 b2be
000000b0: 380c f83d 47e4 a33f 8cdc 96be 8805 45bd
000000c0: 7d55 cb3f aae9 953e 9c95 92be d4ca b23f
000000d0: f6af b73f ae5a 523f e557 ce3f 48db af3f
000000e0: 8d09 023e dc42 00bf 98ba 02bf 4679 b03e
000000f0: 11a5 5c3f c8ea 0440 bc77 183f 3cf9 833f
-0.6688848 1.9408607 -0.24013397 1.128834 0.079630785 1.5703453 -0.24613999 0.40483263
-0.06393311 -0.18261866 -0.14145935 1.0229824 1.0612537 1.5593584 -0.11884389 -0.19312747
1.8129531 0.7140555 -0.064854495 0.15102986 1.1525751 1.683402 1.657398 0.20913598
0.39375713 -0.26236674 1.3696349 0.20527129 1.3278568 -0.53456444 0.43001142 0.7858302
0.029328395 1.0066177 0.42419147 0.75247717 1.1289748 1.583777 -0.30526337 -0.02010502
0.8233725 0.46668088 0.3642546 -0.3490493 0.121117055 1.280404 -0.2946514 -0.048100978
1.5885464 0.29279834 -0.28629768 1.3968148 1.4350574 0.82169616 1.6120573 1.3738794
0.12698956 -0.5010202 -0.5106597 0.34467524 0.8618937 2.07683 0.595577 1.0310435

chain.0.odefunc.odefunc.diffeq.layers.2._layer.weight f4 [64, 64]
00000000: 3a44 fa3e d03e 133e 262a 2c3e c231 05bc
00000010: 2b55 af3e bf87 6abe a75b e8be 2f82 a23e
00000020: 4a15 59be 9ba0 863d 4308 3ebc 9a82 68be
00000030: 1a0d 5b3d 1f6f 88bf 85f4 99be b9f8 3dbf
00000040: 53b7 713e 880a e6bd 0660 ac3d 7ae2 2d3c
00000050: c0fe 0c3e d435 533e 8dcc fcbe c622 d1bd
00000060: 36d9 073e 7694 ccbd 829f 0d3c a720 ba3d
00000070: d6bc 30be a3ed 1e3e 3f4e 343e 4a7b cdbd
00000080: e4b6 1abe a423 e8bd 5da1 e33e fb54 f5bd
00000090: b8e2 8dbe 95cc 66be 9f3f c2bd fe52 17be
000000a0: 83ad 983e 45b6 f43d 6cbd 5e3e ad33 81be
000000b0: 022c 09be 6af8 13bf 6e81 95bb 74f4 8fbe
000000c0: cb07 c0bc 70e8 7bbc c76d 4fbf 9ae0 1dbe
000000d0: fd41 2ebd a7de f53d 742a a9bd 1dcf 62be
000000e0: c0fc 0b3f c10d a7be 9ac2 f83d 63c8 5abe
000000f0: 01d7 a23d 9243 b6bd f4ed 7dbe 6207 6a3e
00000100: 0d49 003e cbab 2c3f cf66 f83d 0f5d f4bd
00000110: ce1c ae3e 24e5 a5be 148f 54be 0af3 25bb
00000120: d8d4 b1bd fa11 793d 3860 2fbc efe0 9ebd
00000130: 9f73 903e 1e69 53be 18a0 5dbe 6b04 8dba
00000140: abcd 913e a9dc a03d 8ca9 3c3e 14bc bc3d
00000150: 53c5 303e de62 aebe fca9 d4be 1bdc 553d
00000160: 51db 7a3e 4438 8d3d 00da 553e 71a8 80be
00000170: 0aa8 7abd d6e3 ff3c a07e de3e f619 4f3d
00000180: 52e6 25be 268b a43d df99 973e c917 f0bd
00000190: 53aa 3cbe f9e8 1c3d 5bb9 2a3e d1df c8bd
000001a0: 0cf7 4a3e 289b e53e f025 003e a082 943c
000001b0: 5f6e 05be 088e 1dbe c958 01bd 8726 3bbe
000001c0: 6ac9 1b3d de8c 07be d546 4dbe dd9b 203e
000001d0: 6a0f 573e 9aa9 91bd 0610 413d 1b85 7dbe
000001e0: d219 563e 075d 3abb f83c 11bc c0e3 96be
000001f0: 176e 63be baac f53e 0968 92be 196d 5f3e
00000200: 97d3 dd3d 8dd9 2b3f 6bdc c23d 7ceb 69be
00000210: e1b1 953e 722f e83d 0cb8 81be 4302 f73e
00000220: d28a 4e3e 9ec0 03bd 903c 063d 01c5 04bd
00000230: 7590 203f 43d2 013e 2a52 f4be b586 61be
00000240: 5709 b53c 4cd3 cdbd 019d bfbd b16a 913e
00000250: 54d9 f5be 6e92 fbbe 51c6 9e3d dc63 e6bd
00000260: 2145 e53e 25f2 a0bd 1734 e7bc 2c05 8c3d
00000270: 6a15 5b3e 46cc 16be ba8d d73d 6d62 833c
00000280: 1259 3d3e a039 f7bd 1ee9 723d 5e64 6abe
00000290: 89dd d63d 8fe2 b43c 1742 02bd 498c 683c
000002a0: 7a10 02be 76dc 423e aaa0 313e 077c fd3d
000002b0: e9d3 99bd 7052 9fbd c1bc 04be aa4e 92be
000002c0: 2f17 ab3e a13e a8bb 4359 acbd 895a 87be
000002d0: d347 063f 03bc 2dbe 2d25 613e d604 3e3d
000002e0: 6147 b3be 3dc0 44be 1821 563e 43fb 52be
000002f0: 1515 393e 1058 3b3e 2614 babe d56e c4bd
00000300: 43d2 db3d c4a3 dabd dcb1 423d d2c0 3d3e
00000310: ef99 40be 806e de3e 1c0c 3cbd 3fd8 463e
00000320: 65a7 253e 5d11 c23d cf65 973e 4e33 ab3e
00000330: 85ee ed3b 3b80 073e 781a 423c 8fc7 0cbe
00000340: f7f2 51bf 3dff af3d bd11 4bbd ab03 1a3d
00000350: c55e 053e cf31 12be e45f 4f3f 47cd 8ebd
00000360: 76fe 07bd f93e 793e 4f95 8c3d 29fb 92be
00000370: 8aa1 853e ba31 273e 2103 0ebe 5517 203e
00000380: 3207 a03e 036e fdbd 44b0 e1bd 84f9 953d
00000390: f3c6 b33e 6732 a23e b53d 573e 5d82 4f3e
000003a0: 8d09 c33c 7251 b63c 2b21 29be 91a8 1c3e
000003b0: 5da7 27be 5dcc e03d 913a 05be 4d85 f7bd
000003c0: cd94 6f3e 5ac2 a43d 4573 1e3e 4fc4 91be
000003d0: 658f 143e 3a09 253e af58 903e 863c b43d
000003e0: ef41 d5bd b2ef 20bd ab32 1f3d 38b2 113e
000003f0: 51c3 cb3d 37f3 023f 2790 4c3e 3af2 06be
0.48880178 0.1437943 0.16812953 -0.008129539 0.34244666 -0.22903346 -0.45382425 0.31739947
-0.21199527 0.06573602 -0.011598649 -0.2270607 0.05347929 -1.0658911 -0.30069366 -0.74207646
0.23605089 -0.112324774 0.084167525 0.010613078 0.13769054 0.20626003 -0.4937481 -0.10211711
0.13266453 -0.09989254 0.008643987 0.09088259 -0.17259535 0.15520339 0.17607974 -0.10033281
-0.1510883 -0.11334923 0.44459048 -0.11979099 -0.27712035 -0.2253898 -0.09484791 -0.14777753
0.2981988 0.11948828 0.21751946 -0.25234738 -0.13395694 -0.57800925 -0.0045625484 -0.2811619
-0.023441216 -0.015375242 -0.8102688 -0.1541771 -0.0425434 0.12005358 -0.082600504 -0.2214932
0.5468254 -0.3262768 0.12146492 -0.21365504 0.07951165 -0.08899607 -0.24797803 0.22854379
0.12527867 0.67449635 0.12128984 -0.11931812 0.3400635 -0.32401383 -0.20757705 -0.0025321865
-0.08683175 0.06080816 -0.010704093 -0.077577464 0.28213212 -0.20645568 -0.21643102 -0.0010758763
0.28477225 0.078545876 0.18424052 0.092155606 0.17262773 -0.34059805 -0.41535938 0.052211862
0.24497725 0.068954974 0.20883942 -0.2512851 -0.06119541 0.03123657 0.43455982 0.050561868
-0.16201141 0.08034353 0.29609582 -0.11723287 -0.18424349 0.038308118 0.1667227 -0.098083146
0.19820803 0.44844937 0.12514472 0.018128693 -0.13030384 -0.15386212 -0.031578813 -0.18276416
0.03803388 -0.1323733 -0.20046552 0.15684457 0.21001974 -0.07112427 0.04713442 -0.24757807
0.20908287 -0.0028436796 -0.008864634 -0.29470634 -0.22209965 0.47983342 -0.28594998 0.21818961
0.10831373 0.6712883 0.09514698 -0.22843736 0.29237273 0.113371745 -0.2533573 0.48243913
0.20170143 -0.032166116 0.0327726 -0.03241444 0.62720424 0.12677865 -0.47718936 -0.22024043
0.02209918 -0.10050067 -0.09356118 0.28401712 -0.4801737 -0.49135154 0.077526696 -0.112495154
0.44779304 -0.078586854 -0.02822308 0.06836924 0.21394888 -0.14726362 0.10525079 0.016038144
0.18491009 -0.12071538 0.05930435 -0.2288985 0.10491473 0.022080688 -0.03180131 0.014193603
-0.12701598 0.19029412 0.17346445 0.12377172 -0.07511122 -0.077793956 -0.12962629 -0.2857564
0.33416125 -0.005134419 -0.08415463 -0.2643626 0.52453345 -0.16966252 0.21986838 0.04639133
-0.35015395 -0.19213958 0.20911062 -0.20603661 0.18074448 0.18295312 -0.36343497 -0.09591452
0.107334636 -0.10675767 0.0475329 0.18530586 -0.18808721 0.4344368 -0.045909986 0.19418429
0.16177137 0.09475968 0.2956986 0.3343758 0.0072610998 0.1323251 0.011847131 -0.13748
-0.8201136 0.08593605 -0.049577463 0.037601154 0.13024433 -0.14276813 0.8100569 -0.06972747
-0.033201657 0.24340428 0.06864416 -0.28707245 0.26099807 0.16327563 -0.13868381 0.156339
0.3125549 -0.12374499 -0.11019948 0.07322982 0.35112724 0.3167908 0.21019633 0.20264573
0.023808265 0.022255633 -0.16516559 0.15298678 -0.16372438 0.10976479 -0.13010623 -0.12085972
0.23396607 0.08044882 0.1547366 -0.28470084 0.14507826 0.16116801 0.2819266 0.088006064
-0.104129665 -0.03929109 0.03886668 0.14228141 0.09949363 0.51152366 0.19976865 -0.1317834

chain.0.odefunc.odefunc.diffeq.layers.2._layer.bias f4 [64]
00000000: ff5d 823d 2451 24be 90f5 653e e7d0 93bb
00000010: 803f b63d 56f8 193e 432e e5be 59ce 743e
00000020: 7f66 e33e dcb0 16bc d87d debe 9c65 b4bc
00000030: b32b 79bd 3b60 483e 6c08 0abe 0d2d fa3b
00000040: f365 7c3c 8aa9 60be 8181 4abd 3980 233e
00000050: 1cda 88be 5eab 04be 869d 423e 12c7 383e
00000060: 71f3 aebe e552 c8bb 70e5 cf3d 4be3 adbd
00000070: 700b 113e d47c 2e3e 6992 8fba bda9 733e
00000080: c613 09be 8808 babb f04f 79be d98e 9e3d
00000090: 7b53 6b3e 985b 1b3e e825 13bd e160 5b3e
000000a0: 1846 023e e4ce 36bd 2ad0 8c3c 86e7 9b3d
000000b0: f4e4 ddbc 7226 4f3e c073 6c3e a6f2 a83e
000000c0: 3d06 54be 8dc8 3ebe 4459 343d 3cde 4abe
000000d0: 3fd6 8dbe f79a 16be 1141 a3be 908c 82be
000000e0: eaa9 ad3d 9347 ff3d 0974 383e d11b ccbd
000000f0: 8649 463e b8ff c7bd 9f3a 34bd f791 35be
0.063655846 -0.16046578 0.22456956 -0.004510987 0.088988304 0.15036139 -0.44761857 0.2390684
0.44414136 -0.00919744 -0.43455386 -0.022021107 -0.06083269 0.19567959 -0.13479775 0.007634765
0.015405166 -0.21939674 -0.04943991 0.15966882 -0.26728904 -0.12955996 0.19005403 0.1804469
-0.34170106 -0.0061133974 0.101511836 -0.08490618 0.1416452 0.17039806 -0.0010953668 0.23795219
-0.13386449 -0.0056772865 -0.243469 0.0774209 0.22981064 0.15171659 -0.035924822 0.21423675
0.12722051 -0.0446309 0.017189104 0.07612519 -0.027086712 0.2022951 0.2309103 0.32997626
-0.20705505 -0.18631192 0.044030443 -0.19811338 -0.2770252 -0.14707552 -0.3188558 -0.25497866
0.08479674 0.124648236 0.18013014 -0.09966243 0.19363984 -0.09765571 -0.044001218 -0.17731462

chain.0.odefunc.odefunc.diffeq.layers.2._hyper_bias.weight f4 [64, 1]
00000000: f766 003f 1e08 473f a5bc 8e3e 9c7c 763f
00000010: b1e3 41be 37e5 6b3f e8a7 67be fcf4 82be
00000020: e9e0 6b3d d1a8 d13e 9d1c 63bf 11dc 893f
00000030: 1aca b6be 3d07 b93e 42ab 1ebf 3a8e 5c3e
00000040: bdeb 76bd e407 20be 53ed dd3d 149c 2b3e
00000050: 3ba2 823d b330 2ebf 1b32 0d3e 261f e6be
00000060: 1c59 70bf 4ca8 68bf c99f b13d 0dd2 833e
00000070: fb47 2b3f fcb0 e33e 03bf 0ebf 1540 5cbe
00000080: 0e84 d33d 54b7 49bf 499d 73be 682d fc3d
00000090: d294 ba3e 371c 963e 3921 fc3c 2cf0 573f
000000a0: 5567 febd 3c09 50bf d611 99bc 975d 553f
000000b0: 3f37 b6be a97e 413e 1541 0dbf 8237 1abf
000000c0: 9625 7b3d 55f8 81bf 7ee6 9b3e 12cd e53e
000000d0: 3407 4ebf 9413 b0be e131 24bf 523e 823e
000000e0: 9cad 1f3f bc20 e23b c6f8 203f e11a 123f
000000f0: 16c6 523f 20b1 2ebf 541b e8bd 1dab 88be
0.5015711 0.7774676 0.278783 0.9628389 -0.18934514 0.9214663 -0.22622645 -0.25577533
0.057587538 0.4094911 -0.88715535 1.0770284 -0.35701066 0.36138335 -0.6198007 0.2153863
-0.06028341 -0.1562801 0.108362816 0.16758758 0.06378599 -0.6804306 0.13788645 -0.4494564
-0.9388597 -0.908818 0.08673055 0.25746194 0.6690671 0.44470966 -0.5576021 -0.2150882
0.10327922 -0.7879536 -0.23790468 0.12313348 0.36441666 0.293184 0.03077756 0.8435085
-0.12422053 -0.8126409 -0.018685263 0.8334593 -0.35589024 0.18895973 -0.5517743 -0.6024095
0.06131514 -1.015391 0.3044929 0.4488302 -0.8047974 -0.34389937 -0.6413861 0.25438172
0.6237428 0.006900875 0.628796 0.57072264 0.82333505 -0.6823902 -0.113333374 -0.2669305

chain.0.odefunc.odefunc.diffeq.layers.2._hyper_gate.weight f4 [64, 1]
00000000: cad2 453f 58d5 333f 03ce dc3e 9379 fb3e
00000010: e822 1f3f 072d 8e3e e1d9 d93e a566 973f
00000020: 9cc1 c23e ad9e 703f ea94 413f 465e 803f
00000030: c7ac c03d b9d8 26be 4c57 913f 3cb8 99bd
00000040: 2243 293f dd27 273f 8419 a33e 8865 813f
00000050: 7c1b 8c3f 9f9a 313f 49a4 043e 6932 1b3f
00000060: b27f 503f b5ae 333f 00e2 343f f3b1 3e3f
00000070: 859b 643f 641f 803f 7a75 e53d e15e 0f3f
00000080: f46c 0540 a01d 893f 31c5 243f 2fde 393f
00000090: 3ff1 9e3e 6e35 223f 753a 8b3e 5027 ba3d
000000a0: 2d19 833f 99be d63e 8c59 2fbe d822 1b3f
000000b0: 9915 1d3f 368b ffbc 594b 693f dbec 433e
000000c0: d1e7 5c3e 839b bd3e 30b2 093f 068d e83e
000000d0: 5fae 543f f97b b23f c6ac 3c3e a17a eebd
000000e0: f7e0 073f c50a 423f 338b 5e3e 8101 1e3f
000000f0: cc9a 243f 558b 463e 2cd3 3e3e f9a3 063e
0.77274764 0.7024741 0.43125924 0.4911619 0.6216264 0.27768728 0.4254904 1.18282
0.38038337 0.9399212 0.7561785 1.002877 0.09407955 -0.1629361 1.1354766 -0.07505843
0.6611806 0.652952 0.31855404 1.010911 1.0945888 0.6937656 0.12953295 0.60623795
0.8144485 0.70188457 0.7065735 0.7449028 0.89299804 1.000958 0.112040475 0.5600415
2.084775 1.0712166 0.6436339 0.7260465 0.3104343 0.6336278 0.27193037 0.090895295
1.0242058 0.4194229 -0.17124003 0.6060004 0.6136108 -0.03119431 0.91130596 0.19133322
0.21572806 0.3703271 0.5378752 0.45420092 0.8307857 1.3944083 0.18425283 -0.11644483
0.53077644 0.75797683 0.21732788 0.61721045 0.642987 0.19389088 0.18635243 0.13148488

chain.0.odefunc.odefunc.diffeq.layers.2._hyper_gate.bias f4 [64]
00000000: 0aa5 853f 30c7 d63e 2307 9b3f 2958 833f
00000010: 2fda d23f a157 833f dcd0 bd3f ac2f dbbe
00000020: 54dd 383f 5792 4b3f 78aa 62be 73bc f33f
00000030: ccb0 983f 3094 253f d382 393f 47b2 cdbc
00000040: 3ea7 633f 4338 063f 8347 e53e 404c a4be
00000050: c929 443e bef9 bc3d 1bee c2be c8c6 37be
00000060: d563 ea3f b926 8b3f 099b 1abe 7fdd f93f
00000070: 2a6e 43be cdde 8e3f 2589 99bd 189a 6f3e
00000080: b2bc fd3e e837 48be b353 ae3f ed92 b53f
00000090: 1925 133f b623 173f e9fe fe3f 3626 9a3e
000000a0: c1ba d13f 0d04 413f f793 93be 78ec 3c3f
000000b0: d79f 833c 98c2 353f 8490 d93e ab7f e53d
000000c0: 28a5 653f 3670 bb3f f6a3 6d3f 40d9 b23f
000000d0: 6073 723f 89b2 8e3e bc08 393f b321 dcbe
000000e0: 36d7 933f 4e6d 833f 31c8 723d 940b 763f
000000f0: eeab d2bc cd3b e73f 5323 de3f aca2 d8be
1.0440991 0.41948843 1.2111553 1.0261279 1.6472834 1.0261117 1.4829364 -0.42809808
0.7221272 0.7952017 -0.22135341 1.9041885 1.1928954 0.6467924 0.72465247 -0.025109423
0.88927066 0.524296 0.44781122 -0.32089424 0.19156565 0.09227322 -0.38072285 -0.17946923
1.8311716 1.0871192 -0.15098204 1.952072 -0.19084993 1.1161743 -0.07496861 0.23398626
0.49558026 -0.19552577 1.3619293 1.4185463 0.5747848 0.59038866 1.9921542 0.30107278
1.6385118 0.75396806 -0.28823826 0.7379832 0.016067429 0.7100005 0.4249307 0.11205991
0.89705133 1.4643619 0.9282831 1.397255 0.947073 0.27870587 0.7227895 -0.4299446
1.1550052 1.0267732 0.05927295 0.96111417 -0.025716748 1.8065125 1.735453 -0.4231161

chain.0.odefunc.odefunc.diffeq.layers.3._layer.weight f4 [2, 64]
00000000: 029a da3e 6149 b83e b1b4 4dbf 0003 0abf
00000010: b100 07bf 4b50 ce3e 3781 76be ef9b c03e
00000020: 0c0f c5bd b15d 07bf 06e5 65bb ded3 e43e
00000030: 3383 fe3e b4bf 9abd 52dc 083f b325 cabe
00000040: d0a3 97be 5599 fcbe 9192 213f 1a1a e5be
00000050: 6759 3e3f 2437 fc3e dcf7 c03e fb2b cabe
00000060: c295 b23d a8aa 34bf cb45 d8be 637c a5be
00000070: 6769 d5be 4a8d 58bf d074 a7be af19 fbbe
00000080: 1655 873f 51a3 04bf 6fbd e1be a1cb 17bf
00000090: c5b2 d9be 3db2 d8be c526 b0bd b1e4 543e
000000a0: 19ef 25bf 0636 abbe c45f ea3e bddb 10bf
000000b0: 1aa7 b3be 6694 333f 2f30 a43e 8c66 01bf
000000c0: 25d5 d2be 960a 443f 8d69 0dbf 10c1 92be
000000d0: d568 a5be d5c8 44be f99f e53d 85b7 013f
000000e0: 1076 9d3e 4981 a13e 122f 973e e9e2 6dbe
000000f0: 1cde f6be 7931 403e 2758 e03c f1b1 b9be
00000100: 359d 693e 0d49 a73e 91e6 25be 3e6e b63e
00000110: f60e e93e cbdb 913e 43ee 4e3f e608 743e
00000120: 6b28 71be fccc c43e a491 9a3e 43dd 1fbf
00000130: 03ab cabc 25c9 8bbe 783b 9b3e ca1a 023f
00000140: 70fa 0dbf 2fa4 eb3d e815 9e3e cbc2 5dbe
00000150: fe28 2b3e 634b 7d3e eda0 8a3e 1adf 053f
00000160: b79d ff3e 86fe b23e 361a bf3e 001b f8be
00000170: a7bf 82be a66b 0e3f 067e e33e a597 2bbe
00000180: c917 32bf aa0e 243f 05f7 09be 4560 d73e
00000190: c752 65be 6f64 8cbe 9368 2c3f 18de 383e
000001a0: 0ba5 8dbe be98 7e3e 01d7 1c3e bdd8 81be
000001b0: ee87 69be 5cc9 7fbe 8332 9e3e 5282 49be
000001c0: fdf6 b1be 4f45 233e 2651 8dbe 0de9 f9be
000001d0: 1322 1d3f d2c3 2c3f 38fc 8c3e 4270 4f3e
000001e0: 6a89 b13e 64b9 31bf ee6a 0fbf 29ec b4be
000001f0: 5b44 e63e a4d3 22bf d4d3 16bf 6e5e 843e
0.42695624 0.35993484 -0.8035384 -0.5391083 -0.5273543 0.40295634 -0.24072729 0.37618968
-0.096220106 -0.52877337 -0.0035079136 0.44692892 0.49709472 -0.07556096 0.5346118 -0.39481887
-0.29617167 -0.49335733 0.6311427 -0.44746476 0.7435517 0.4926082 0.37689102 -0.3948668
0.0871997 -0.705729 -0.42240748 -0.32321462 -0.41681978 -0.8459059 -0.32706308 -0.49043033
1.0572841 -0.518117 -0.4408984 -0.5929509 -0.42519203 -0.42323485 -0.08601145 0.20790364
-0.6481796 -0.33439654 0.45776188 -0.56585294 -0.35088426 0.70148313 0.3206801 -0.505471
-0.4117824 0.7657865 -0.5523918 -0.2866292 -0.32306543 -0.19217236 0.11212153 0.50670654
0.30754137 0.3154395 0.295281 -0.2323109 -0.4821633 0.18768872 0.027385784 -0.3626857
0.22813876 0.3267292 -0.16201235 0.35630983 0.45519227 0.28488 0.8083231 0.2383152
-0.23550574 0.3843764 0.3018924 -0.62446994 -0.024739748 -0.273019 0.3031881 0.50822127
-0.5546026 0.11505925 0.30876088 -0.21656339 0.16714856 0.24735789 0.27075902 0.5229355
0.49925014 0.3495981 0.37324685 -0.484581 -0.25536844 0.5563301 0.44432086 -0.16757067
-0.69567543 0.64084876 -0.13473137 0.42065635 -0.22394858 -0.27420375 0.6734707 0.18053472
-0.2766498 0.24862954 0.15316392 -0.2536067 -0.2280576 -0.24979156 0.30897912 -0.1967862
-0.3475875 0.15944408 -0.27600974 -0.48810616 0.6138012 0.674863 0.27536178 0.20257667
0.3467515 -0.6942351 -0.56022537 -0.35336426 0.44974026 -0.6360419 -0.58916974 0.25853294

chain.0.odefunc.odefunc.diffeq.layers.3._layer.bias f4 [2]
00000000: c98f 5dbe 2c5a babd
-0.21636881 -0.0909923

chain.0.odefunc.odefunc.diffeq.layers.3._hyper_bias.weight f4 [2, 1]
00000000: d2ed 483f febd 16be
0.78487885 -0.14720914

chain.0.odefunc.odefunc.diffeq.layers.3._hyper_gate.weight f4 [2, 1]
00000000: 9b98 973f 67ce 883f
1.1843446 1.0687989

chain.0.odefunc.odefunc.diffeq.layers.3._hyper_gate.bias f4 [2]
00000000: 261e dfbd 5aef dc3e
-0.10894422 0.4315136
